data.pth (torch, 6271 bytes, 6 tensors)

l1.weight f4 [8, 77]
0	0xbdc0f25b	-0.09421226
1	0x3d4432b7	0.047899928
2	0x3e780b2f	0.24223016
3	0x3f40e3bf	0.7534751
4	0x3ef64bd1	0.48104718
5	0x3f2b79d1	0.6698275
6	0x3f04966d	0.5179203
7	0x3b4c8203	0.0031205423
8	0xbefcb91c	-0.49359977
9	0x3d3a582f	0.045494255
10	0xbf0cd9c7	-0.550198
11	0x3e8b9e4c	0.27269208
12	0x3dd96617	0.10615175
13	0x3ed1c640	0.40971565
14	0x3e84ba84	0.2592355
15	0x3f269a5f	0.650793
16	0x3f04336c	0.51640964
17	0xbeb4fef2	-0.35350758
18	0x3e140254	0.14454013
19	0xbeba0932	-0.3633514
20	0x3d8ded9f	0.06930088
21	0x3f013f6b	0.50487393
22	0x3f1634cd	0.5867432
23	0x3e8ef742	0.27923018
24	0x3eaf2328	0.3420651
25	0x3da7e15d	0.081972815
26	0x3e9c901c	0.30578697
27	0xbe9f0c26	-0.31063956
28	0x3ec97295	0.39345232
29	0x3f0d4c75	0.5519479
30	0x3ee1181e	0.43963712
31	0x3ec4ffdf	0.38476464
32	0xbf1a3b77	-0.60246986
33	0xbe1aa51e	-0.1510205
34	0xbf18af26	-0.59642255
35	0xbf178b9e	-0.59197414
36	0x3ee366bf	0.44414327
37	0x3ebf5c47	0.3737509
38	0x3f642c71	0.8913031
39	0x3e91654c	0.28397596
40	0x3ef19129	0.4718106
41	0x3ede8d1a	0.43467027
42	0x3ed427c9	0.41436604
43	0x3e9f034d	0.31057206
44	0xbe0a8345	-0.13526638
45	0x3f4a49af	0.7901868
46	0x3f24c9e8	0.64370584
47	0x3f0d203a	0.551273
48	0x3f5c2bdf	0.8600444
49	0x3ee5b32a	0.44863254
50	0x3e85db90	0.26144075
51	0x3f17157a	0.59017146
52	0x3f171022	0.5900899
53	0x3efbff6f	0.49218318
54	0x3e411124	0.18854195
55	0x3edf29d0	0.43586588
56	0x3ecaf202	0.39637762
57	0x3ed20be1	0.41024688
58	0x3e067fc4	0.13134676
59	0x3f2b3aa9	0.66886383
60	0x3ed9e66f	0.4255862
61	0x3f5eb56e	0.8699559
62	0xbee4ce41	-0.4468861
63	0xbe648e37	-0.22319876
64	0x3f5b02e6	0.855513
65	0xbecda190	-0.40162325
66	0xbe1e0eee	-0.15435383
67	0x3f34c010	0.70605564
68	0x3f7e4474	0.993232
69	0x3f320602	0.6954042
70	0x3ed5fdd5	0.4179522
71	0x3f2bbd72	0.67085946
72	0x3e21ecb6	0.15812954
73	0x3f14096d	0.5782688
74	0x3e8835c7	0.2660353
75	0x3e83c4cc	0.25736082
76	0xbe079f43	-0.13244347
77	0x3eee5266	0.4654724
78	0xbe4c38fc	-0.19943613
79	0x3e49903e	0.1968393
80	0x3c226494	0.009911675
81	0xbdd68d5b	-0.1047618
82	0xbcc3a17c	-0.023880713
83	0xbc567175	-0.013088574
84	0x3d81086e	0.06300436
85	0xbe5ed803	-0.2176209
86	0xbd443d7b	-0.047910195
87	0xbf2796dd	-0.65464574
88	0xbd110d7a	-0.035413243
89	0xbdedf817	-0.11619585
90	0x3f5492e5	0.83036643
91	0xbd775495	-0.060383398
92	0xbe619681	-0.22030069
93	0x3d89de97	0.06731909
94	0xbe3e51dd	-0.18585916
95	0xbe04a090	-0.12951875
96	0xbce78a2d	-0.02826413
97	0xbd5be84d	-0.053688336
98	0xbcb555a5	-0.022135565
99	0x3e94e806	0.2908327
100	0x3f86afdf	1.0522422
101	0x3ddd3835	0.10801736
102	0xbbefe6ae	-0.0073212003
103	0xbd80ff88	-0.06298739
104	0xbe9a8b27	-0.3018429
105	0x3f5767f6	0.84143007
106	0x3e7f59f7	0.24936663
107	0xbe8a85a7	-0.27055094
108	0xbd7b5abf	-0.06136584
109	0xbf0dbbbf	-0.553646
110	0x3ec1caef	0.3785014
111	0xbf282e52	-0.6569568
112	0xbf0ff41f	-0.56231874
113	0x3e5c5a83	0.21518902
114	0xbe87d44e	-0.26529163
115	0x3ced9fc4	0.029006846
116	0xbde9055c	-0.11377975
117	0xbcdf006c	-0.02722188
118	0x3d922420	0.071357965
119	0x3d807e8f	0.06274139
120	0x3ee29424	0.44253647
121	0x3e04155f	0.12898777
122	0x3d66374c	0.05620508
123	0x3e531406	0.20613107
124	0x3e532a5d	0.20621629
125	0xbf37ddf4	-0.7182305
126	0xbf09a24a	-0.5376326
127	0x3d0c2fc8	0.034225255
128	0x3e6c2037	0.23059164
129	0xbbb1c8bc	-0.0054255407
130	0x3eaa46a4	0.3325702
131	0x3f5f07f3	0.87121505
132	0x3edaf234	0.4276291
133	0x3f2b66c7	0.669537
134	0xbcdbd410	-0.026834518
135	0x3f1f9a13	0.62344474
136	0x3e80443e	0.25052065
137	0xbde958c2	-0.11393882
138	0xbf2c6222	-0.6733724
139	0x3f446de5	0.76730186
140	0x3e9dfa4d	0.30855027
141	0x3e734077	0.2375506
142	0xbe876890	-0.26446962
143	0x3e4c6f92	0.19964436
144	0xbe37e13d	-0.17957015
145	0xbe35fb2b	-0.17771594
146	0xbba6f08a	-0.0050945925
147	0xbe15965f	-0.14608143
148	0x3dfe6186	0.12420945
149	0xbe2ea66c	-0.17055672
150	0xbe8501d0	-0.25977945
151	0xbdfb1a4e	-0.122608766
152	0xbe6bbb3e	-0.23020646
153	0x3f038507	0.5137486
154	0x3f15d437	0.5852694
155	0x3ea9d660	0.33171368
156	0x3eccc988	0.39997506
157	0x3f212a10	0.6295481
158	0x3f02129f	0.50809664
159	0x3f521b70	0.82073116
160	0x3ef55e5e	0.4792356
161	0xbe24c11b	-0.16089289
162	0x3ebe0322	0.37111765
163	0xbe674a84	-0.22587019
164	0x3f245b67	0.6420197
165	0x3ee3d48e	0.44498104
166	0xbdc6421a	-0.096805766
167	0x3c398a59	0.011324489
168	0xbe8fe18b	-0.28101763
169	0x3e394b9d	0.1809525
170	0x3d969646	0.07352881
171	0x3f0cf787	0.55065197
172	0xbe361c22	-0.1778417
173	0xbeffb915	-0.49945894
174	0xbe92c524	-0.2866603
175	0x3ee8bd6e	0.45457023
176	0xbd2df48d	-0.04246955
177	0xbe558476	-0.20851311
178	0x3ee4c5fa	0.44682294
179	0xbd928fee	-0.07156359
180	0x3e0e03cf	0.1386864
181	0x3f0cd24f	0.55008405
182	0xbc99b173	-0.018761372
183	0xbc0bc5bd	-0.008531031
184	0xbe23d831	-0.16000439
185	0x3ef53f16	0.47899693
186	0x3f45dc1b	0.7728898
187	0x3ef045a4	0.46928132
188	0x3f50766f	0.81430715
189	0x3f5c7bb3	0.8612625
190	0x3e196b79	0.14982404
191	0x3e3b6d2a	0.18303362
192	0xbe9c8471	-0.30569795
193	0xbde7f07d	-0.113251664
194	0x3f029566	0.51009214
195	0x3ea47e06	0.32127398
196	0x3f1479a6	0.5799812
197	0x3db89dda	0.09014483
198	0x3f020a49	0.50796944
199	0x3f268fbc	0.6506307
200	0x3ea211ee	0.31654304
201	0x3dd657af	0.10465943
202	0x3e8c0d66	0.27353972
203	0x3e14b5ef	0.14522527
204	0x3e8a1e5d	0.2697629
205	0xbddca1f7	-0.1077308
206	0xbe2ca0dc	-0.16858238
207	0x3efdd62e	0.4957747
208	0xbe5def5f	-0.21673344
209	0xbf1911b9	-0.5979267
210	0x3e45442c	0.19264287
211	0xbe15a84e	-0.14614984
212	0xbc9561c6	-0.018235099
213	0x3f0aeacd	0.5426453
214	0x3e9ed73a	0.3102358
215	0x3e45811c	0.19287533
216	0x3f5b6639	0.85702854
217	0x3eebbb80	0.4604149
218	0xbe17c033	-0.14819412
219	0x3ecdf116	0.40222996
220	0xbe93437e	-0.2876243
221	0x3e8dfafa	0.27730542
222	0x3f41dc65	0.7572692
223	0xbe20e4e8	-0.15712321
224	0xbe928709	-0.2861865
225	0xbd3e0ab4	-0.046396926
226	0x3e623c45	0.22093304
227	0x3f13780b	0.57605046
228	0x3eb05a2e	0.34443802
229	0xbdc496b3	-0.09599056
230	0x3f21aaec	0.6315143
231	0x3e9b1562	0.3028975
232	0xbd998406	-0.074958846
233	0xbca17869	-0.019710736
234	0xbe270233	-0.16309433
235	0xbdf6ec8b	-0.12056836
236	0xbe3e112d	-0.1856124
237	0xbe1c294f	-0.15250133
238	0xbe314d51	-0.1731465
239	0x3e74867b	0.23879425
240	0xbd0b67c3	-0.0340345
241	0x3e3e0b25	0.18558939
242	0x3e7339fb	0.23752587
243	0xbd82f326	-0.06394033
244	0xbec468ef	-0.38361308
245	0x3ea3f663	0.32023916
246	0xbf5a9fa6	-0.85399854
247	0xbdcffa7f	-0.101552
248	0x3e340e0f	0.17583488
249	0x3d06afe0	0.03288257
250	0xbec4df05	-0.384514
251	0xbd7497dc	-0.059715137
252	0xbd283974	-0.041070417
253	0xbd771f9a	-0.060332872
254	0xbe17fea9	-0.14843239
255	0xbb44b5f2	-0.0030015674

l1.bias f4 [8]
0	0x3f2a0412	0.6641246
1	0x3f3ea38e	0.74468315
2	0x3fa94a0a	1.322572
3	0x3ec45a4b	0.38350138
4	0x3eefe28e	0.46852535
5	0x3f6933ff	0.91094965
6	0x3e03eaa2	0.12882474
7	0x3e9bf484	0.30459988

l2.weight f4 [8, 8]
0	0x3e8b6bfb	0.2723082
1	0xbd97dee1	-0.07415558
2	0x3f89d009	1.0766612
3	0x3e9772cd	0.29579774
4	0xbf17d23d	-0.59305173
5	0xbf5278ec	-0.8221576
6	0x3f245d75	0.64205104
7	0x3edc2dd7	0.43003723
8	0x3f013fb0	0.50487804
9	0x3fd55677	1.6667012
10	0x3eec6f0d	0.46178475
11	0xbef70967	-0.4824936
12	0xbf7c45ab	-0.98543805
13	0xbe841417	-0.25796577
14	0xbeb67ee4	-0.35643685
15	0x3e1e5e1b	0.15465586
16	0x3f9c0963	1.2190365
17	0xbef1250f	-0.47098586
18	0x3f2730bb	0.6530873
19	0xbf7d5939	-0.9896427
20	0x3ecccede	0.40001577
21	0xbf45fef1	-0.77342135
22	0xbe25d4f2	-0.16194513
23	0x3d596ff9	0.0530853
24	0x3f50a3ea	0.81500113
25	0xbf13df11	-0.5776225
26	0x3f293d25	0.66108924
27	0xbf696f3f	-0.91185373
28	0x3d1f9286	0.038958095
29	0x3faf02b2	1.3672698
30	0xbf92ce42	-1.1469195
31	0xbf65b61c	-0.89731
32	0x3e2e9a34	0.17051011
33	0xbe80b285	-0.251362
34	0xbecb6c72	-0.39731175
35	0xbe455951	-0.19272353
36	0x3e8ed8ee	0.2789988
37	0xbeaeb2a7	-0.34120676
38	0xbe01de4c	-0.12682456
39	0x3dd304d5	0.10303656
40	0x3e55bfea	0.2087399
41	0xbe7bfc7d	-0.24608035
42	0xbe09506f	-0.13409589
43	0xbe318d39	-0.17339028
44	0xbe671fb6	-0.2257069
45	0xbd900014	-0.07031265
46	0xbe267931	-0.16257168
47	0xbe99508f	-0.29944274
48	0x3fb14669	1.3849612
49	0xbdb65a07	-0.0890389
50	0xbf0a45db	-0.5401284
51	0x3f52b9cf	0.8231477
52	0x3f911d7a	1.133712
53	0x3b7fded4	0.0039042728
54	0x3e82fabb	0.25581917
55	0x3fe3bd43	1.7792133
56	0xbe9aaeb5	-0.30211416
57	0xbe361560	-0.17781591
58	0x3fc30526	1.5235946
59	0x3ec28b42	0.3799687
60	0x3fb964b1	1.4483854
61	0xbe4d4a93	-0.20047979
62	0xbeedab28	-0.46419644
63	0xbf06f6fd	-0.52720624

l2.bias f4 [8]
0	0x3de5e934	0.112261206
1	0x3f2d750b	0.6775672
2	0xbe08e2f1	-0.13367821
3	0x3f73251d	0.94978505
4	0xbea8d8fc	-0.32978046
5	0xbe60c0e1	-0.21948577
6	0xbec32f14	-0.38121855
7	0x3f294f70	0.66136837

l3.weight f4 [11, 8]
0	0x3e74db5b	0.23911802
1	0xbeb71656	-0.35759228
2	0x3ef606a3	0.48051938
3	0xbe84a8a6	-0.2590992
4	0x3d8c4283	0.068486236
5	0xbe560499	-0.20900191
6	0xbf65fa5f	-0.8983516
7	0xbd5d0a05	-0.053964633
8	0xbfcd1f47	-1.602517
9	0xbfcc9415	-1.5982691
10	0xbeedac2a	-0.46420413
11	0x3f9cc793	1.2248405
12	0x3d81d55c	0.06339523
13	0xbe37f8e1	-0.17966034
14	0xbf97b322	-1.1851542
15	0xbf45665b	-0.7710931
16	0xbff65ddc	-1.9247394
17	0xbf1f26e0	-0.62168694
18	0xbfb943d4	-1.4473825
19	0xbe518682	-0.20461467
20	0xbd9d6f9a	-0.07687302
21	0xbea9c4ea	-0.33158046
22	0x3e986a4f	0.29768607
23	0xbf846403	-1.0343021
24	0xbfa349ad	-1.2756859
25	0xbfcc0d4a	-1.5941556
26	0x3ee67a8e	0.45015377
27	0xbde833b2	-0.11337985
28	0x3cafa477	0.021440728
29	0x3e546926	0.20743236
30	0xbe73ea7f	-0.23819922
31	0x3da8661a	0.08222599
32	0xbf283e5d	-0.6572016
33	0x3f502471	0.81305605
34	0xbec41e05	-0.38304153
35	0xbfab5f56	-1.3388469
36	0x3e3db9c1	0.1852789
37	0x3d2a4038	0.04156515
38	0xbe1f64c5	-0.15565784
39	0xbf8ebc2c	-1.1151175
40	0xc0022216	-2.0333304
41	0xbff07693	-1.8786186
42	0xbf004067	-0.5009827
43	0xbfef77f3	-1.8708481
44	0x3e6b7f3a	0.22997752
45	0xbe4e3ea5	-0.20141084
46	0x3f471121	0.7776051
47	0xbf74db6e	-0.95647323
48	0xbd87ccaf	-0.06630837
49	0xbf8bc41d	-1.0919224
50	0x3eff52c1	0.49867824
51	0xbfa91972	-1.321089
52	0xbe9e9176	-0.30970353
53	0xbddb5ac6	-0.10710673
54	0xbe83ef1f	-0.25768372
55	0x3e871a54	0.26387274
56	0x3f535853	0.8255665
57	0xbfaed9f2	-1.3660262
58	0xbf33b09c	-0.7019136
59	0xbfb4c272	-1.412184
60	0xbd726c8a	-0.059185542
61	0x3e1c437e	0.15260121
62	0x3e4348a1	0.19070674
63	0xbf8fdffd	-1.1240231
64	0xbfd00b04	-1.6253362
65	0x3f8e3cd9	1.1112319
66	0xbf63c6c7	-0.88975185
67	0x3ee50ef7	0.4473798
68	0x3d998adb	0.07497188
69	0x3e2e5d9e	0.170279
70	0xbff48b17	-1.9104947
71	0xbe9dcf2b	-0.3082212
72	0xbf0b9219	-0.545198
73	0xbfea55a2	-1.8307383
74	0xbf5ce56b	-0.86287564
75	0x3ec8284e	0.3909325
76	0x3e5da565	0.21645124
77	0x3e244826	0.16043147
78	0xbfa56cb9	-1.2923805
79	0x3f9309c8	1.148736
80	0x3f44b256	0.7683462
81	0x3efdd7b1	0.49578622
82	0xbf6d52e3	-0.927046
83	0xbfdd6f49	-1.7299587
84	0xbdafb5e0	-0.08579612
85	0x3dbb1a2c	0.09135851
86	0xbfcf577c	-1.6198573
87	0x3f2c7a85	0.6737445

l3.bias f4 [11]
0	0xbf146a92	-0.57975113
1	0xbe942de3	-0.2894126
2	0x3fcd46d4	1.603724
3	0xbee7f261	-0.45302108
4	0xbe9eec96	-0.31039876
5	0xbe208a67	-0.15677796
6	0xbee1b943	-0.44086656
7	0xbe752ce7	-0.2394291
8	0xbcef4ab6	-0.02921043
9	0x3e496a51	0.19669463
10	0x3e0fc6d2	0.14040688
